checkpoints/small_melody_chord_model.pth (torch, 35340 bytes, 8 tensors)

net.0.weight f4 [64, 13]
00000000: d0b4 24be afd1 723b 3b42 5c3e 5ee8 b73e
00000010: 35bf 63be b776 ea3b b31d 3cbf 36b7 a13e
00000020: 0a8c 53bf 738e aebe 0b14 f73e da89 823e
00000030: 69be 21bf d364 80be a117 b43d dcfb aa3d
00000040: e56c 7a3e 961d 293d cbf7 1dbd 9523 dfbc
00000050: f7a3 58be 223a a13d 0892 903d 91fa 233e
00000060: c70c febd ae0c 21bd 07c6 21be 1ebe c93b
00000070: 66d5 c63e 993b 093f fcdb 133e 1350 643d
00000080: cb02 0cbd 0e8b 8abd 4de8 babe e20a de3c
00000090: bf9c 2ac0 fb99 c63c 3765 a13c d838 f13f
000000a0: 4341 17bf 2645 fdbf 0f18 3e3d a05e 273f
000000b0: 4da4 f2bf a01e b4be e0f0 36bf 6430 cb3e
000000c0: 84fe a6bd 601e dcbd 56ce 633e 8b1b 733e
000000d0: 9727 2940 23bb de3e 8fe9 24bf 32ba c9be
000000e0: 87ca 793c 8af1 3ebd 35f2 14be d6b1 afbd
000000f0: fc1a 3a3e 8835 1e3f 3187 60bf 73d4 20bf
00000100: 8c03 cebc a6d0 8dbe 90db 853e 842d 5dbe
00000110: 4b70 8dbe 735f b73e 26cd 153f 47c8 083d
00000120: 6da6 cb3d 792b 88be f669 9a3e cf10 42bf
00000130: b5fd 0bbe b9b6 983e 6285 afbd ab54 62bd
00000140: 32ec 383e f127 7bbf 3a68 873e b544 1fbe
00000150: b06e 973c 5758 353f fda2 60be e56e 67bf
00000160: 1303 34bd 6e6f c33d 6bf2 fcbe be07 6740
00000170: a5bb a03e 9a49 1cbd eb7a d4bd 3d4e 113f
00000180: 7a99 0dbf 6f6a 94be d7d0 a33e 1fa6 3abd
00000190: e29b 8bbf 8147 04bd 5b26 1fbe 19b2 293e
000001a0: cb73 3d40 b8c9 e33e f1fd b43e d3d9 29be
000001b0: 8a32 293e 66c8 803e 6f4a b0be b4f6 113d
000001c0: 670a 3d3d c828 033f 83f7 fabf e9a9 1fbf
000001d0: 8501 30bf b3b7 8640 8095 02bd 5eb3 aec0
000001e0: 8e26 983e f5f9 03be 63b9 7f3e 028c 843e
000001f0: f9ff adc0 d6ec dd3d ebf4 9d3d 5958 c73d
00000200: ae84 863d 20b7 aebe c99d 6e40 15db f7bd
00000210: 771e 61bf 2b71 ae3c 732f 3dbe d826 b0be
00000220: f07d 663e eb59 ddbe a1d1 3c3e e759 953e
00000230: 3114 4ebe ac25 07bd 50b5 50bd 55e7 4ebe
00000240: 566e cbc0 ae78 8e3e 710f 623d 482c 8d3e
00000250: 0aee 963e 8356 4cc0 4ed0 4c3e ec03 6bc0
00000260: e09f 673e 1eda 303e 6f5d 7c3e 6f4c 5b3e
00000270: 6585 80be c4a1 2f3e e236 a93e f4f5 eb3c
00000280: 871e 363e 7adb 0e3d 09cb 2dbf c5fc 76be
00000290: f270 2abf 1bcf e83e 5479 123e dca2 a3be
000002a0: e347 9bbf f68b 39be b303 b4be 6053 233f
000002b0: cd67 4cbf 6453 89be dcd0 9e3e db6a e43e
000002c0: 5721 eebe f274 9dbd 2522 a53e ec33 31bc
000002d0: b46c f83d b936 a73d 15ad 453b cc13 a8be
000002e0: 27d7 603e 43a2 dabc 729a c2be cb9f 2ec0
000002f0: 5605 cbbe d676 c7bc b31f ee3d 2cee 36bd
00000300: c0b2 453e 1458 073c 4d8b 9abd 956b c2bd
00000310: 0eec 2f3d e552 173e 7c76 16be 217a 813e
00000320: f68d a63d f515 39bf eed2 47c0 261b cdbd
00000330: 493f 973d e637 b43e e6b9 5cbd 9bce df3e
00000340: c33e 393f 0a36 c13d 85b4 bb3d 84b3 a03d
00000350: 2c3c 953d 4d98 86c0 829b d8bd 3e29 43c0
00000360: f01f 3c3e 790b 07bc 58fd f6bc 1b3c 2b3c
00000370: a16f d3c0 509b 79bd 6e55 bc3a b2ff 2cbe
00000380: a39e 40be da9f 5c3c 42a8 e53d bec3 44be
00000390: 6011 4ebd 177b 2fbe 4573 f3bc 6652 4ebe
000003a0: 4b07 bbbc 8270 49be 9f6f 0c40 7e0b d0bd
000003b0: 7215 8cbd c9e3 11bf 63f8 1cc0 01e9 83be
000003c0: 9a4a 8b3e 19fa 8fbe 5ef8 13bf 54ca 513e
000003d0: 8723 903d 9bbf b93c 0f66 bdbc 8f5f 243d
000003e0: 34d0 82be f176 213e 183a 903d dc14 873d
000003f0: cda7 413e 2ff4 63be 0b8a 5ebe d124 51be
-0.160846 0.003705125 0.2150964 0.3591947 -0.22240908 0.007155265 -0.7348282 0.3158509
-0.8263556 -0.34093055 0.4825748 0.25495797 -0.6318117 -0.25076923 0.08793569 0.083488196
0.24455602 0.04128798 -0.038566392 -0.027238647 -0.21156298 0.07872416 0.07059103 0.16013552
-0.12404781 -0.039318733 -0.15798198 0.006156697 0.38834685 0.53606564 0.14439386 0.055740427
-0.03418235 -0.06764804 -0.36505356 0.027104799 -2.665817 0.024243345 0.019701583 1.8845472
-0.59083956 -1.9786727 0.046409663 0.6537876 -1.8956391 -0.35179615 -0.71461296 0.39685357
-0.08154014 -0.10747981 0.2224668 0.23740976 2.6430414 0.4350215 -0.6441888 -0.39399868
0.01524604 -0.04661707 -0.1454552 -0.085788414 0.18174356 0.6180043 -0.87706286 -0.6282417
-0.025148176 -0.2769825 0.26144075 -0.21599394 -0.27624735 0.3581501 0.58516157 0.033394124
0.099438526 -0.26595667 0.30158967 -0.758069 -0.13671 0.29826906 -0.08570363 -0.055256527
0.18058851 -0.9810782 0.26446706 -0.15553553 0.018485397 0.7083792 -0.21937175 -0.90403587
-0.043948244 0.09542738 -0.494037 3.6098475 0.3139316 -0.03815613 -0.10375007 0.5676001
-0.5531231 -0.28987452 0.3199527 -0.04556858 -1.0906947 -0.032294754 -0.15541975 0.16571845
2.9601924 0.44489837 0.35349992 -0.16587 0.16523185 0.25152892 -0.34431788 0.035635665
0.0461525 0.512341 -1.9606785 -0.6236864 -0.6875232 4.209924 -0.031880856 -5.4593954
0.29716915 -0.1288832 0.24973063 0.25888067 -5.4374967 0.108361885 0.0771273 0.09733648
0.065682754 -0.34124088 3.7283804 -0.121023335 -0.8793711 0.021294197 -0.18475132 -0.34404635
0.22508979 -0.43232664 0.18439342 0.29170153 -0.2012489 -0.03299491 -0.050954163 -0.20205434
-6.3572187 0.27826446 0.055190507 0.27572846 0.29478484 -3.1927803 0.20001337 -3.6721144
0.22619581 0.17270705 0.24645017 0.21415876 -0.25101772 0.17151552 0.33049685 0.028803803
0.17785083 0.034877278 -0.6788793 -0.24119861 -0.6657859 0.4547051 0.14304096 -0.3196019
-1.2131313 -0.18119797 -0.35159072 0.63799095 -0.7984589 -0.26821434 0.31018722 0.44612774
-0.4650981 -0.07688321 0.32252613 -0.010815602 0.121301085 0.081647344 0.003016298 -0.32827604
0.21957074 -0.0266887 -0.38008457 -2.728503 -0.39652508 -0.024348658 0.1162714 -0.044660732
0.19306469 0.008260746 -0.07546101 -0.09493176 0.04294973 0.14777716 -0.14693636 0.2528849
0.08132546 -0.7229913 -3.1222491 -0.10014944 0.073851176 0.35198897 -0.053888224 0.43712315
0.7236139 0.09434135 0.09165291 0.0784674 0.072868675 -4.2060914 -0.10576536 -3.0493922
0.18371558 -0.008242481 -0.0301501 0.010451342 -6.6073766 -0.060939133 0.0014368722 -0.16894415
-0.18810515 0.013465846 0.11213733 -0.19215295 -0.05030954 -0.17136799 -0.02971805 -0.2014862
-0.022830626 -0.19671825 2.1943128 -0.10158442 -0.06840028 -0.569882 -2.4526603 -0.25763705
0.27205354 -0.28120497 -0.57800853 0.20487338 0.07038026 0.022674372 -0.023119954 0.040130194
-0.2554947 0.15768029 0.070423305 0.065957755 0.18911667 -0.22261117 -0.21732347 -0.204242

net.0.bias f4 [64]
00000000: bd4c e73c b76c 84be 3ecc 963d 642b 70bd
00000010: c58e 123e 5097 493d a95b b4bc 94ce 67bc
00000020: 7672 97bd 5968 2c3e a8ef 403e 06c0 e33c
00000030: 97bf a23d b9b8 653d bd92 493e 12ee a53d
00000040: 634b 803e d759 4dbe 2f68 813e ec53 89be
00000050: b1f0 b43c 4561 8abc ba8a 1e3e b9b0 f13d
00000060: 003d 843d e4ab a23c ef75 ba3d 485e 86be
00000070: 5db3 ed3d e382 f33d 740f 79ba baee 793e
00000080: 5aaf 863d 7f81 d43c a1af 5b3e 6b76 393e
00000090: 9fc0 953e 2b1e 223d f0bd 063e 25fe 363d
000000a0: 861a 2f3e beb2 843d dd22 b73d da3e bc3d
000000b0: fd89 953c 0ca1 013e 8b88 8f3d 4e40 ac3d
000000c0: 281c 84bd 6425 693e d886 ae3d fe94 8cbe
000000d0: 6e62 0a3e c618 e63d 81d8 9f3d cde9 85be
000000e0: 9f01 55bd 8828 153e 392a 713d 644b 8fbc
000000f0: b754 ae3d e826 453e 434d 1ebd 7394 233e
0.028234834 -0.25864193 0.07363175 -0.05863513 0.14312275 0.04921657 -0.022016363 -0.014148373
-0.073948786 0.1683668 0.18841422 0.027801525 0.07946699 0.05608437 0.19684882 0.08102049
0.25057516 -0.20053802 0.25274798 -0.2682184 0.022087427 -0.016892085 0.15482607 0.11801285
0.06456947 0.019857354 0.09104525 -0.26243806 0.116064765 0.11890199 -0.0009500899 0.24407473
0.065764144 0.025940655 0.21453716 0.18111579 0.2924852 0.03957955 0.13158393 0.044675965
0.17099962 0.06479405 0.089421965 0.091916755 0.018254275 0.12659091 0.070084654 0.08410703
-0.06450683 0.2276817 0.08521813 -0.27457422 0.1351411 0.11235194 0.07804967 -0.26154938
-0.0520035 0.14566243 0.058878157 -0.017492004 0.08512252 0.19253123 -0.0386479 0.15974598

net.2.weight f4 [64, 64]
00000000: b612 a73e 606d c63d ec9f 2fbf 3104 23bf
00000010: 8650 ccbe 12e0 f33e 8122 fb3b c477 5abe
00000020: 9f87 b2be 13cc ae3e 9105 a1be 998f 8b3e
00000030: 9392 c4bd 90e3 0a3e 5ffd 4bbe a7cb 173e
00000040: 3d67 8ebe 2437 35bd a7c8 973e 4e66 e73d
00000050: 944b c33e b4a0 24bf 4b50 963d bb91 223f
00000060: 799c 91bf 82a7 98be d473 e1bd c4b9 2d3d
00000070: c39d 91be 30ce 35be 92ff a6be 5a93 12bf
00000080: 65ab 653e 3b36 b13e 8a67 8ebe d149 95bd
00000090: a925 adbe 1db8 f83e d03c b63e 3f8a f1bd
000000a0: 932a ec3e 7acb 8ebf 4282 943e 16c7 47be
000000b0: 1324 d7bd 7498 8a3e a46f c23c 3d8d debd
000000c0: a2bd 913e 053d 343e 1852 59be 3a7a d2bd
000000d0: e281 ef3d 052d 953e a7c4 443d 6e88 b4bd
000000e0: 4c26 acbe e10d 64bd 6320 13bf b5cc d33e
000000f0: 4031 8c3e 0915 1c3e fbb9 b53d 0e83 2a3d
00000100: d8ae 0f3f 5261 de3d 5e33 6bbe f706 edbd
00000110: 53b4 e43e 6eea 17bc 593e db3e 68cf 87be
00000120: 9497 493e 8800 7e3e 22ff e83e d7ea 47be
00000130: 66cc 24be e7b3 8c3e d3fd fdbe f026 903e
00000140: 7ee3 32bf 2097 d53b 1163 053f 0427 2d3d
00000150: a243 95bd 4bdd 7dbf a98f 323e e379 193e
00000160: 5997 973e 355b 85be 4447 903d 98da 443d
00000170: 4402 aabe fd6d 44be 5685 cabe 3259 a2be
00000180: c8ad 8c3d 1b8c 383e a3d1 b9bd 101a 863e
00000190: 61a6 7abe c0ba 663d 7fcc 45be f77e 8d3d
000001a0: e81e a23e 841f 5bbf 8432 e23e a07a 82bd
000001b0: 0a93 ec3d 0321 9b3d d0db 323e 2364 233e
000001c0: a697 0ebe bfc2 313d 29c7 47bf ac98 733d
000001d0: f4e5 133e d005 693e 4d30 56be 0ad1 f03d
000001e0: 6a69 88be c9fe a0bd 177b 3b3e 3fcd bf3e
000001f0: 88ca 043f 16c5 d43e 1d8a 1ebe 173b b0be
00000200: 4c34 2c3e ac55 c5bd 1fe7 1fbe 527a c83d
00000210: bdc1 d83e 9f93 4bbe 0617 85bf abfa 9e3b
00000220: 05d4 2dbd 4f5e 463e 9828 643e acd0 c1bf
00000230: fff0 59bb c44e cabe 7848 16bf 41bd ba3e
00000240: 4b3d 0abf 400d 2c3d 5308 4bbe 0042 1ebb
00000250: 100a 953e a166 ccbe 3167 16bf 10bf 113b
00000260: e9a4 3b3e b72c 113f bfd3 76be 2aa3 f4bd
00000270: 6d8c 3ebe c0e9 b5bf c71e 6bbf c797 293e
00000280: ae76 bf3e 8a1a 47bf 475f d23d 8cea c83e
00000290: da65 dbbe f0bd d6be 1536 fc3d 58a9 42bc
000002a0: 3830 913e aa00 21be 4d0e 523e 485f 09bf
000002b0: 28db 493e 5101 923d 4e15 2abf 7cc7 343e
000002c0: 2118 bc3e 6534 063e 2d7c 963e 8c2c 28bd
000002d0: c407 053e c88d 8ebe 4369 fcbd 22e2 e5bd
000002e0: 94ed 87be a232 b73e 7838 0c3f 1c6c 7dbd
000002f0: 250b dabd d04c 4b3d ad55 d3bc d740 52be
00000300: f7a7 44bf b07b 4e3c ff16 193e e544 52be
00000310: 55b1 a53e 94b9 6b3e 6865 4c3d ed18 213f
00000320: a2e8 153e d13a 933d daa6 613e 0916 87be
00000330: cae8 713e 2705 1ebf 32ba fb3d a6bc d2be
00000340: 84ee 4d3e b84c 073d c4a0 6cbf 80be a9bc
00000350: cf6d a4be 8b1e d5bc 013f 30be a793 a83e
00000360: c775 c53e bf56 983e af00 e6bc c48e 90bd
00000370: 4020 f43e 88d4 27bf 3c91 b5bd f6d3 833e
00000380: b522 2fbe d4f1 6ebf 589f dd3c 8709 ad3e
00000390: 1434 fd3c 6796 38bf d864 b0be d575 0c3f
000003a0: 948c a8be d768 81be 8c30 b3be c4f7 6f3d
000003b0: 5260 f4bb 589b a03d a3e9 043f bbe4 1b3f
000003c0: af6f 2cbe 768c debe e02a 86bb 74c8 15bd
000003d0: f566 cfbe c786 813d ef1d 7fbe 9cb5 19bd
000003e0: dcc4 513e 9093 40be 88dc 1f3e 27df bebe
000003f0: e44e 113f 3d3d 1c3e 4cee d63c f3be 53be
0.32631463 0.096888304 -0.68603396 -0.6367827 -0.39905185 0.4763189 0.0076640253 -0.2133475
-0.34869096 0.3414007 -0.3144956 0.27257994 -0.09598269 0.1356337 -0.19920872 0.14823781
-0.2781314 -0.04424204 0.29645273 0.1129881 0.381436 -0.64307714 0.073395334 0.6350362
-1.1375877 -0.29815298 -0.110084206 0.042413488 -0.28440675 -0.17754436 -0.3261686 -0.5725609
0.22428663 0.34611687 -0.2781337 -0.0728947 -0.33817795 0.48577967 0.3559327 -0.117939465
0.46126232 -1.1155846 0.2900563 -0.19509539 -0.105049275 0.27069438 0.023734875 -0.10866783
0.2846499 0.17601402 -0.21222723 -0.10277219 0.11694695 0.2913591 0.048039105 -0.088150844
-0.33622968 -0.0556773 -0.57471293 0.41367117 0.27381325 0.152424 0.088733636 0.04162889
0.56126165 0.10858406 -0.22968814 -0.11573594 0.44668826 -0.009272201 0.42821005 -0.26525426
0.19686729 0.2480489 0.4550715 -0.19523178 -0.16093597 0.27481005 -0.49607715 0.28154707
-0.69878376 0.0065182596 0.5210429 0.042273536 -0.072882906 -0.9916579 0.17437615 0.14987902
0.29607657 -0.26046148 0.07044843 0.04806003 -0.33204854 -0.19182582 -0.39554852 -0.31708676
0.06869084 0.18022196 -0.09073188 0.2619176 -0.24477531 0.056330442 -0.1931629 0.06908982
0.31664205 -0.85594964 0.44179165 -0.06371045 0.11551483 0.07574656 0.17466664 0.15956168
-0.13925037 0.043398615 -0.7803827 0.05947177 0.14443189 0.22756124 -0.20916863 0.11758621
-0.26642925 -0.078610964 0.18308674 0.37461278 0.5187154 0.41556615 -0.15482374 -0.34420082
0.16816825 -0.09635481 -0.1561551 0.09788956 0.4233531 -0.19880532 -1.0397651 0.0048516593
-0.042438526 0.19371913 0.2228111 -1.5141807 -0.0033255217 -0.39513218 -0.5870433 0.36472514
-0.53999776 0.042004824 -0.19827394 -0.0024148226 0.2910924 -0.3992205 -0.5875121 0.0022239126
0.18324627 0.56708854 -0.24104212 -0.119451836 -0.18608256 -1.421196 -0.9184384 0.16561805
0.37395233 -0.7777487 0.10272079 0.39241445 -0.42851144 -0.41941786 0.12315003 -0.011881195
0.283571 -0.1572291 0.20513268 -0.5366101 0.19712508 0.07129157 -0.6643876 0.17654222
0.3673716 0.13105924 0.29391614 -0.04105811 0.12991244 -0.27842546 -0.123247646 -0.11224772
-0.26548445 0.35780817 0.54773664 -0.06187068 -0.10646657 0.0496338 -0.02579769 -0.20532547
-0.76818794 0.012602732 0.14950179 -0.20534094 0.32361856 0.23020011 0.049901396 0.6292866
0.14639524 0.07188953 0.22036305 -0.26384 0.23623958 -0.6172661 0.12291373 -0.41159552
0.20110518 0.03303215 -0.9243281 -0.02072072 -0.32115027 -0.02601554 -0.17211534 0.3292515
0.3856642 0.29753682 -0.028076498 -0.070584804 0.47680855 -0.6555867 -0.08865592 0.2574765
-0.17103083 -0.9333775 0.02705352 0.3379633 0.030908622 -0.72104496 -0.34451938 0.548673
-0.32919753 -0.252753 -0.34997976 0.058585897 -0.0074577713 0.078421295 0.51919 0.6089589
-0.16839479 -0.43466538 -0.0040944666 -0.03656812 -0.40508237 0.06324535 -0.24913763 -0.03752671
0.20485252 -0.1880629 0.1561147 -0.37279627 0.56761 0.15257736 0.026236676 -0.2067831

net.2.bias f4 [64]
00000000: a8b2 2bbd e786 66bc 86ee 363e a6c1 57bd
00000010: cb20 043e d33e a5bd 7163 453d cc1d 7abd
00000020: 6a67 9e3d 61b5 c9bd 81b5 65bd a068 403d
00000030: d4e8 eb3c 5c7b 873d c57c 6a3e 3831 ae3c
00000040: 9eb9 babd ac64 c2bb a833 4b3e f05c 673d
00000050: c1fa 093e 654f 8b3e bca5 11bd 7d16 163e
00000060: cf65 e5bb 833e 1dbe bd76 613d aa6e 8a3d
00000070: 54b5 4dbd 123e 353d f2b0 1d3e 840f 283e
00000080: c825 eebd 8cef 0fbe 7f65 d93c 0966 903e
00000090: 7191 2b3e 4f27 173e fe62 0b3e 0adb 0c3e
000000a0: 932c 4c3e 24d2 d1bd da58 cd3d fd82 013e
000000b0: fcf0 bcbd 0b61 1ebe feca 5cbd d4a7 4a3e
000000c0: b5a5 1dbe f622 0fbe 8a32 61bd 4488 413d
000000d0: 6111 e03d 640c 933d 76e7 c03d c85f c0bd
000000e0: 4448 2c3d c38d fb3d 2936 173e 83ee 90bd
000000f0: baec 97bd 1af8 edbc e9a5 bebd af52 3039
-0.041918427 -0.014070249 0.17864427 -0.052674912 0.12903135 -0.080686234 0.048190538 -0.061063573
0.077345684 -0.098490484 -0.0560813 0.04697478 0.028797545 0.06615326 0.22899158 0.021263704
-0.09117435 -0.005932411 0.19843924 0.056485116 0.13474561 0.2720901 -0.035558447 0.14657016
-0.007000662 -0.15355878 0.05504488 0.06759389 -0.050221756 0.044248648 0.1539953 0.16412169
-0.116283 -0.14056224 0.026537655 0.28202847 0.167547 0.14761089 0.13611981 0.13755432
0.19938879 -0.10245159 0.10026713 0.12647624 -0.092256516 -0.15466706 -0.053904526 0.19790584
-0.15395243 -0.1397818 -0.05497984 0.047249094 0.10940815 0.07180098 0.09419148 -0.09393269
0.042061105 0.12282898 0.14766754 -0.070767425 -0.07418199 -0.029048968 -0.093089886 0.0001681547

net.5.weight f4 [32, 64]
00000000: 62ea ab3d a86d 123e cd54 dc3d 930e 1dbc
00000010: c69a d23c 526c c2bc 01d3 1dbe c33c 0fbc
00000020: 3ee8 053e 84ed 9f3d 3a20 a3bb 9424 a5be
00000030: 19d2 563e a815 043d 1e59 98bd 0e21 7a3e
00000040: 65bf 213d 0de4 f23d 2b58 babd f980 08c0
00000050: 54c4 0abe bc8b 193f 16d3 7fbc bfc9 8fbf
00000060: 6950 ae3e 7345 d6be a902 1a3c df77 cf3d
00000070: 3dc6 443d 29e9 033e 2012 323e 5d83 033f
00000080: afde 9f3c 1e63 7a3d 5887 103e 65e7 4f3d
00000090: fac8 25bf ec9f 713e 031c 64be 1cb8 053f
000000a0: 52c3 eabc 40b0 243e b7a8 c23e 9fb5 dcbe
000000b0: 04ac c3bf 6275 c2bd 8726 913d 5b99 86bf
000000c0: 589d 203d 6e84 13be 8aae 18bc 174a 283f
000000d0: f93e c23d 93df 143e a471 89be f8b7 c93c
000000e0: 310f e7bf 1a69 9d3d d35c 883d e242 e13b
000000f0: d335 bbbb 6317 b0bf ca60 7dbe 6202 7cbf
00000100: 43c6 cf3d bbbb 40bd 8f4a eabe b8f4 d53e
00000110: c20d a73b 5903 163d 5b44 783d db41 cabd
00000120: f24d 4a3e f060 903d 038f 37bd f8ac e53c
00000130: c515 663d bca8 acbe a9cd 22be 77e5 623e
00000140: b5f9 3fbd b6d3 ab3e 8e74 423e 8c2b 853b
00000150: 2510 a13e 679b ed3d 9f04 08c0 0855 cf3d
00000160: 349a 073e 8839 22c0 c8c5 4d3d bb81 8b3d
00000170: 0a25 c23d 3ffb f93e 3439 fa3c c832 b4be
00000180: b832 e6bd 8853 87bd 9592 76bd b683 063e
00000190: 017c cbbe 25f7 743c 0e16 8fbe 89cb 08be
000001a0: 508a d9be 9500 7cbb 995b 05be f68a 4a3d
000001b0: 7ad0 aabf ed8a bdbd 1e05 7d3e 2087 bebb
000001c0: bc5a 0b3d e1fe 99bd 3a88 e0be 02a1 0f3f
000001d0: 50ff 0fbf e694 183e ae85 b8be aace fd3d
000001e0: da6c 2d3e 4dad 92be 8a7a 493c d4eb b93d
000001f0: a2d2 383c 7db7 aa3d 38b0 d7be 9e5d 69be
00000200: 6914 db3d 276d 253c fd1c 173f 15d3 2c3e
00000210: 7691 e9bd c566 22bd bb8c 01bf 7c1b a23d
00000220: f161 7fbe 4262 593d d45c a83d ca72 ef3d
00000230: 2951 26bf 9b6a d3bd 54da 963d fe75 6a3e
00000240: 1678 b53c 1ec1 d2be ebdf 903e b2c9 25be
00000250: c420 f93e 80a5 19bf 41d4 edbc 1ee8 ef3d
00000260: 87ba 73be d189 84be 7db3 413e c6ee 84be
00000270: f0e8 e3bd e64a f73c d2e6 fc3c 68ed be3e
00000280: 2dc2 5d3c 69e9 78bd 3c6a 0cbe e065 1c3e
00000290: e576 4b3f cbcd 203e f9c5 a3bf ae00 82bb
000002a0: 7ffe 243e c5bf 79bf 312f 0d3e e5b1 0abf
000002b0: b270 5c3e e05c b63d 9dca dfbd 2f8d 0cbe
000002c0: 604f 343d fd1a 9ebc 0987 83bd e4e0 473e
000002d0: 827e 09be 670e cabe a58e b63e 380c f0bd
000002e0: ee4d a43e e734 013e 3b29 193e 33cb e13d
000002f0: 4131 6e3c 8a75 ffbe 5b3f f93c 9fce a5be
00000300: 3616 ae3b e15d 493e 0ce6 d5be 9fd2 99be
00000310: e13b 6a3e 56c9 a2bd 340d 8fbf 6e55 4f3d
00000320: 093e 7a3e 008a b53b 32d6 0e3d 72d1 2fbf
00000330: d10e 763e 5468 ebb9 ec12 65be bbbe 963e
00000340: f4bf 873d ad65 9e3d b2f9 cb3e 95c9 41be
00000350: b08e e4be 6a7b f63d 5a5f 9dbd 070a bdbe
00000360: ab27 193f 6ac7 97be 1d14 023f 56ea 543d
00000370: 8a30 a13e 0410 71bd 876b 943d 0a13 753e
00000380: dd47 b1bd 1abc bcbd e314 af3d 9345 783e
00000390: 6ed6 10bd 2cb6 ca3d df84 febe 6e00 1d3e
000003a0: c98a ae3d abc4 02bd 21db 073e c836 e7bd
000003b0: 04d3 7fbe ffe5 dabd b886 5c3e 6227 b0be
000003c0: 1c45 1abd be12 0bbd 4691 8d3c 6ad0 ae3d
000003d0: b697 43bc c389 09bd 4795 a2be 10af ae3d
000003e0: fd7a 4dbf 72a5 1dbd b6b8 013e d96a e4bc
000003f0: 52be a8bd d05b 2ebe 1681 63bf b94c 77be
0.08394314 0.14299643 0.10758362 -0.009585994 0.025708567 -0.023733292 -0.15412523 -0.008742514
0.13076875 0.078089744 -0.004978207 -0.3225447 0.20978583 0.032247216 -0.07438873 0.24426672
0.03948917 0.118599035 -0.09098848 -2.1328719 -0.13551456 0.5997884 -0.015614292 -1.1233443
0.34045723 -0.4184986 0.009400048 0.101302855 0.048040617 0.12881912 0.17389727 0.5137232
0.019515363 0.06112968 0.1411413 0.050757784 -0.6475979 0.23596162 -0.2227631 0.52234054
-0.02865759 0.16082859 0.38019344 -0.43107316 -1.528687 -0.09495045 0.07087427 -1.051555
0.039212555 -0.14405987 -0.009318957 0.6573805 0.09484667 0.14538412 -0.26844513 0.024623856
-1.8051511 0.07686062 0.0665833 0.006874428 -0.0057132035 -1.3757137 -0.24743953 -0.98441136
0.10145237 -0.047054034 -0.4576001 0.41788268 0.0050980756 0.036624286 0.060612064 -0.09875842
0.19756296 0.07049739 -0.04481412 0.02803658 0.056173105 -0.33722484 -0.15898766 0.22157846
-0.046869 0.3355996 0.18989775 0.004064029 0.3145763 0.11601906 -2.125282 0.1012364
0.13242418 -2.5347614 0.050237447 0.068118535 0.09479721 0.48824498 0.030544855 -0.35194993
-0.112401426 -0.06607729 -0.060198385 0.13136181 -0.39743045 0.014951502 -0.27946514 -0.13358893
-0.42488337 -0.0038452495 -0.13023223 0.04944893 -1.3344872 -0.092550136 0.24708983 -0.005814448
0.034022078 -0.075193174 -0.43853933 0.56105053 -0.5624895 0.1490055 -0.3603949 0.12392934
0.16936055 -0.28647843 0.012297282 0.09078184 0.0112806875 0.08335779 -0.42126632 -0.22789618
0.10697252 0.010096825 0.5902861 0.16877396 -0.114046976 -0.03964879 -0.5060536 0.079153985
-0.24939705 0.05307222 0.082208306 0.11691816 -0.6496759 -0.10323068 0.073658615 0.22896573
0.022151988 -0.41162962 0.28295836 -0.16190222 0.4865781 -0.6001816 -0.029031875 0.11714195
-0.23801623 -0.25886396 0.18916126 -0.2596342 -0.11128414 0.030187082 0.030871782 0.37290502
0.013535065 -0.060769472 -0.137124 0.15273237 0.79478294 0.15703504 -1.2794791 -0.003967366
0.16112708 -0.9755824 0.13787533 -0.54177696 0.21527365 0.08904433 -0.10927317 -0.13725732
0.04402101 -0.019299978 -0.0642224 0.19519383 -0.13427165 -0.39464113 0.35655704 -0.117210805
0.32090706 0.12617837 0.14957134 0.11025085 0.01453811 -0.49894363 0.030425718 -0.32384202
0.0053127063 0.19664718 -0.41777074 -0.30043504 0.22874404 -0.07948558 -1.1175904 0.05061858
0.24437727 0.0055401325 0.03487224 -0.68678963 0.2402909 -0.00044900423 -0.223705 0.2944239
0.06628409 0.07734237 0.3983894 -0.18924554 -0.44640112 0.12035258 -0.076842025 -0.36921713
0.59826154 -0.29644328 0.5081194 0.051981293 0.31482345 -0.058853164 0.07247072 0.23933044
-0.08656285 -0.09215565 0.08548906 0.2424529 -0.035360746 0.09898028 -0.49710748 0.15332195
0.08522565 -0.03192584 0.13267185 -0.112897456 -0.2498284 -0.106883995 0.21535766 -0.34405047
-0.037663564 -0.03395342 0.017281186 0.085358456 -0.011938026 -0.033578645 -0.31754515 0.08529484
-0.8026579 -0.03848786 0.12668118 -0.02788298 -0.08239426 -0.17027211 -0.88868845 -0.24150361

net.5.bias f4 [32]
00000000: 39f8 913e 1d45 0d3f 134c 613e 49a5 813e
00000010: 3675 1c3f 6be4 353f 0a79 b43e 8d57 0e3f
00000020: 4bbd 6e3f 1c77 2d3f e864 5b3f 36ae c1bf
00000030: a760 863f bd18 353f b423 193f 93e7 9d3e
00000040: 50f9 5ebe f741 f93e 90c1 253f 1bd2 5e3f
00000050: 56cd 293f 8119 873f 1a2c e13d d4ee 0f3f
00000060: 47ae 163f 0062 463f 2792 823f e4d7 d2bd
00000070: b3b9 493f 9020 243f 1a12 613f 8d58 1abd
0.2850969 0.55183583 0.22001676 0.25321415 0.6111635 0.71051663 0.35248595 0.5560234
0.9325759 0.6775987 0.85700846 -1.513129 1.0498246 0.7074087 0.59820104 0.3084074
-0.21774793 0.4868314 0.6474848 0.87039346 0.6632894 1.0554658 0.1099474 0.562238
0.58859676 0.77493286 1.0200852 -0.10295084 0.7879898 0.64112186 0.87918246 -0.037682105

net.7.weight f4 [25, 32]
00000000: 0ac5 7fbe 0e96 8f3e 8ea5 1e3e 3849 08be
00000010: 1d2e 19be fc8b 023e 54b0 773c c0cb 3d3e
00000020: 6d37 9a3e fa8f 283e 6390 95be 7131 85bf
00000030: ce78 74be 5e16 f93e d657 1bbf c447 71be
00000040: be3d 2dbe 3c0e 75be 9e79 e43e 8fc2 e9be
00000050: 6507 4ebf 0412 6abf 8438 24bf 07b8 e0bd
00000060: 8515 0e3f 98fc 233e cc08 ccbe 50e3 1fbe
00000070: 7d32 85be d801 5bbe 92f4 263d 36ed 42be
00000080: 6921 c9be 6a66 07bf c03e f3bd 1b82 ccbe
00000090: 7fe8 81bd 52cb dc3d 01d3 5a3d eee4 483e
000000a0: ac01 97bf c462 133e dc02 aebe c1a4 41bf
000000b0: 9517 5ebf a718 813e 04bc 39bf e136 e13e
000000c0: ff2d 3cbe d07f a2be 57e0 5c3e 15e3 78be
000000d0: 5a7c 5cbf ee15 f9be 663b e13d c171 4bbe
000000e0: e5a4 2cbf bdc2 ea3e 6aa9 9f3d 2275 d73c
000000f0: 949c e9bc c94f b3bd d241 063f 1dc5 16be
00000100: 89fc 4fbe b542 e33c 5081 05be afe4 5bbf
00000110: de4a 08bf 6cfb 59be 45db 4e3e 7a8f 37bf
00000120: faf5 f7be 09fa 793e cda0 47be 229a d8bf
00000130: cfd2 8cbf cb57 c4be 7868 a13e 1949 c9bd
00000140: d798 8b3c ef1f 213e 5149 6e3e 829e 89be
00000150: 4e88 693e 51ac 023f f11e 04bf cdfa af3e
00000160: 2e19 61be 1a46 2abe ec71 c33e d2f9 093e
00000170: b72d 89be 5cd1 1b3e 2344 13bf a351 383e
00000180: d6f6 b73d 646b 27bf a5f2 90be ba36 0fbf
00000190: 9a50 22bf b002 00bf 1763 cfbe 0f8c 45bf
000001a0: 9147 c5bd 7841 0cbf 6967 e63e f8e2 76c0
000001b0: 5a45 7c3e d89a 1fbf 15b9 093e e3d1 acbc
000001c0: f604 30be 6af0 d43e 116c a9be 86a1 53bf
000001d0: 4be1 243e 4cea a13e 3b93 5abf 3cab aa3e
000001e0: bced 91be a77a 6ebe cdcc 783e 5a7b 93be
000001f0: 3fe0 ad3d ab12 173f d087 b1be 99c3 57bf
00000200: 7293 8cbd c026 e53e c120 7d3e 99c0 523e
00000210: 6d16 1d3d 78f5 14bf e621 b13e 1305 dc3c
00000220: df01 603e dc8e 60bd fa36 df3e 3074 62bf
00000230: 8de2 de3e 637d aebe 2302 373e cf8e 7ebd
00000240: 2be7 2e3d 4547 a3be d82d 9cbe 789e 87be
00000250: e53d d1be 40a2 c4be 944a ffbe 320b c53d
00000260: 09ad f8be 5d0c 253c 118c 87bf 5d0a 73be
00000270: ea05 003f 9826 86be 5da3 38bf c2d9 72be
00000280: 7e61 bc3e 76fe 643e 8326 89be 8824 553e
00000290: e4f5 8cbd de2a 2dbe b253 993e 64e0 76bd
000002a0: d5a9 ae3e f6ce 31be 2979 05bf 8570 8cbf
000002b0: 4e26 863c a0fb 893e 3454 0bbd 886f dbbd
000002c0: dc5f e4bd 28c9 9fbe 11aa 113e 0561 33bd
000002d0: 78a2 07bf e19c 20bf 9528 c7be 44e3 3c3e
000002e0: 17ee 85bf c20f a2be 9450 a2bf 2987 05be
000002f0: 3630 a2bf fdd8 cb3c 39c1 be3e 3de6 f3bd
00000300: c7d0 25bd e6ec b7bd d8ca d83a 2c44 483e
00000310: ca47 a03e 1615 6e3e 8f28 8ebe 32d1 2abe
00000320: 02f9 a6bf 4182 34bd aab9 c9be 143a 51bf
00000330: 687e 2ebf 28a8 e63d 8f03 a1be e0b6 a13e
00000340: 2a6a 4ebb 3e60 833e d225 b53e 7557 fc3d
00000350: 3633 03be c296 e1bd 424c 43bf a65e 03bf
00000360: da9b 5dbf 6dd2 8c3e 1c6e 883e 7d6e 693d
00000370: 3c29 89be b40c e6be 72fa ac3e e424 18be
00000380: a445 4cbf 3508 c5be 2d0c e2be 6d9c 36bf
00000390: 2fbd 403e 4f22 da3d 95a8 13bf 9baf 063f
000003a0: 0776 b7bf 9718 f73e f13b 093e 8451 33bf
000003b0: 19c0 02bf a973 1fbf 7ab8 d4be 6275 ba3e
000003c0: f8b4 27be 94c9 8b3d efe4 0cbf 142e be3e
000003d0: 4200 c63e 06cb f13e 2c5a 62bd 6d5f 38bd
000003e0: ad4f 26bf dc85 4dbf fd91 853e eee6 19be
000003f0: 4f24 c7be 2810 ffbe 3828 283e 2a53 4abd
-0.24977508 0.2804417 0.15492842 -0.1330918 -0.14958997 0.12748712 0.0151177235 0.18534756
0.30120412 0.16461173 -0.2921172 -1.0405713 -0.23874208 0.48649877 -0.606809 -0.23562533
-0.16918084 -0.23931211 0.44624037 -0.4565625 -0.80480033 -0.9143374 -0.64148736 -0.109726004
0.55501586 0.16014326 -0.3985046 -0.15614057 -0.26015082 -0.21387422 0.040760584 -0.19035801
-0.39283302 -0.52890646 -0.11877203 -0.39943013 -0.06343173 0.10780968 0.053423885 0.1961858
-1.1797385 0.14393145 -0.33986557 -0.7564202 -0.86754733 0.2521412 -0.72552514 0.43987182
-0.18376921 -0.31738138 0.21569954 -0.24305375 -0.86127245 -0.48649544 0.109976575 -0.19867612
-0.6743911 0.458517 0.07795985 0.02630097 -0.028517045 -0.08755452 0.52444184 -0.1472363
-0.20311178 0.02774177 -0.1303761 -0.8589582 -0.5323924 -0.21287316 0.20200832 -0.717033
-0.48429853 0.24411787 -0.19494934 -1.6922038 -1.1001834 -0.3834823 0.31525016 -0.098283954
0.017040653 0.15734838 0.23270155 -0.26878744 0.22805902 0.51044184 -0.5160971 0.34371033
-0.21982262 -0.16628304 0.38172853 0.13474205 -0.2679269 0.15216583 -0.57525843 0.17999892
0.08982627 -0.6539824 -0.28310123 -0.5594288 -0.6340424 -0.500041 -0.40505287 -0.7716684
-0.09632791 -0.547874 0.4500077 -3.857603 0.2463583 -0.6234565 0.1344951 -0.021096176
-0.17189392 0.4158967 -0.3309026 -0.8266834 0.16101567 0.31624067 -0.85380906 0.33333766
-0.2850169 -0.23288976 0.24296875 -0.28805047 0.08490037 0.5901286 -0.3467393 -0.84282833
-0.068640605 0.44756126 0.24719526 0.20581283 0.038351465 -0.58187056 0.34596175 0.026857888
0.21875714 -0.05482374 0.4359663 -0.8845854 0.4353222 -0.34080037 0.17871909 -0.06214791
0.042700928 -0.31890312 -0.30503726 -0.2648809 -0.40867534 -0.38405037 -0.49861586 0.09621276
-0.48569515 0.010073748 -1.058962 -0.23734422 0.50009024 -0.2620132 -0.7212427 -0.2371588
0.3679313 0.22362694 -0.26787195 0.20814717 -0.068828374 -0.16910884 0.29946667 -0.06027259
0.34113947 -0.17364106 -0.52138 -1.0971838 0.016375687 0.26949787 -0.03401585 -0.10714632
-0.11151096 -0.31208158 0.14225031 -0.043793697 -0.5298228 -0.6273938 -0.3889815 0.1844607
-1.0463284 -0.31652647 -1.268084 -0.13039841 -1.2670963 0.024883742 0.37256792 -0.11909149
-0.04048231 -0.08980732 0.0016539944 0.19557256 0.3130477 0.23250231 -0.2776532 -0.16681364
-1.3044741 -0.044069532 -0.39399463 -0.81729245 -0.6816163 0.11262542 -0.31448027 0.31584835
-0.0031496384 0.25659364 0.35380417 0.123213686 -0.12812504 -0.11015083 -0.76288235 -0.513163
-0.86565936 0.27504292 0.26646507 0.056990135 -0.26789272 -0.44931567 0.33784825 -0.14857823
-0.79793763 -0.38482824 -0.44149914 -0.71332437 0.18822168 0.10651075 -0.5767911 0.526117
-1.4332894 0.48260948 0.13401772 -0.7004626 -0.5107437 -0.6228586 -0.41546994 0.3641768
-0.16377628 0.06825557 -0.55036825 0.3714453 0.38672072 0.47225207 -0.055261776 -0.04501288
-0.64965326 -0.8028238 0.26087943 -0.15029499 -0.3889489 -0.49817014 0.16421592 -0.049395718

net.7.bias f4 [25]
00000000: ee1d ed3d 97b1 053e 5c17 5ebc 3148 b9bd
00000010: 89c5 133c b72c 97bd 6bc7 0ebd aec8 153e
00000020: df03 c93c 2c7d 24be ee3e f43d 6d82 27be
00000030: 9970 3a3e dfbc efbd fa84 b43b ba92 363e
00000040: c870 513d 482e 683e 9e85 673e 5fac 88bd
00000050: 6e86 713e 061c 30be da6c e7bd d68c 40be
00000060: 8cb7 eebf
0.11577974 0.13056026 -0.013555374 -0.090469725 0.009019264 -0.073815756 -0.03485815 0.14627334
0.024537979 -0.16063374 0.119260654 -0.16358347 0.18207015 -0.11705946 0.005509016 0.17829409
0.051132947 0.22673905 0.22609565 -0.06673502 0.23586437 -0.1719819 -0.11300059 -0.18803725
-1.8649764
